…
ary","implicit":true,"key":"diRhPDWqxS"}],"key":"kMcgKBOp0Z"},{"type":"block","kind":"notebook-code","children":[{"type":"code","lang":"python","executable":true,"value":"model.summary()","key":"sys3wMxoOP"},{"type":"outputs","id":"Flq_qXtkLZAT0p0kqR10N","children":[{"type":"output","jupyter_data":{"name":"stdout","output_type":"stream","text":"Model: \"sequential\"\n_________________________________________________________________\nLayer (type)                 Output Shape              Param #   \n=================================================================\nconv2d (Conv2D)              (None, 24, 24, 6)         156       \n_________________________________________________________________\nmax_pooling2d (MaxPooling2D) (None, 23, 23, 6)         0         \n_________________________________________________________________\nconv2d_1 (Conv2D)            (None, 19, 19, 16)        2416      \n_________________________________________________________________\nmax_pooling2d_1 (MaxPooling2 (None, 18, 18, 16)        0         \n_________________________________________________________________\nflatten (Flatten)            (None, 5184)              0         \n_________________________________________________________________\ndense (Dense)                (None, 120)               622200    \n_________________________________________________________________\ndense_1 (Dense)              (None, 84)                10164     \n_________________________________________________________________\ndense_2 (Dense)              (None, 10)                850       \n=================================================================\nTotal params: 635,786\nTrainable params: 635,786\nNon-trainable params: 0\n_________________________________________________________________\n"},"children":[],"key":"Mh65hoZNV7"}],"key":"z90W0xa6e9"}],"key":"z8HItRHNdy"},{"type":"block","kind":"notebook-content","children":[{"type":"heading","depth":2,"position":{"start":{
…
